module  {
  func @main_graph(%arg0: memref<4xf32>) -> memref<3xf32> attributes {input_names = ["input.1"], output_names = ["18"]} {
    %cst = constant 0.000000e+00 : f32
    %cst_0 = constant 0xFF800000 : f32
    %c0_i64 = constant 0 : i64
    %c4_i64 = constant 4 : i64
    %c8_i64 = constant 8 : i64
    %c20_i64 = constant 20 : i64
    %c32_i64 = constant 32 : i64
    %c72_i64 = constant 72 : i64
    %c112_i64 = constant 112 : i64
    %0 = alloc() : memref<152xi8>
    %1 = "krnl.getref"(%0, %c0_i64) : (memref<152xi8>, i64) -> memref<f32>
    %2 = "krnl.getref"(%0, %c4_i64) : (memref<152xi8>, i64) -> memref<f32>
    %3 = alloc() : memref<3xf32>
    %4 = "krnl.getref"(%0, %c8_i64) : (memref<152xi8>, i64) -> memref<3xf32>
    %5 = "krnl.getref"(%0, %c20_i64) : (memref<152xi8>, i64) -> memref<3xf32>
    %6 = "krnl.getref"(%0, %c32_i64) : (memref<152xi8>, i64) -> memref<10xf32>
    %7 = "krnl.getref"(%0, %c72_i64) : (memref<152xi8>, i64) -> memref<10xf32>
    %8 = "krnl.getref"(%0, %c32_i64) : (memref<152xi8>, i64) -> memref<10xf32>
    %9 = "krnl.getref"(%0, %c112_i64) : (memref<152xi8>, i64) -> memref<10xf32>
    %10 = "krnl.getref"(%0, %c72_i64) : (memref<152xi8>, i64) -> memref<10xf32>
    %11 = "krnl.getref"(%0, %c32_i64) : (memref<152xi8>, i64) -> memref<10xf32>
    %12 = "krnl.global"() {name = "constant_0", shape = [4, 10], value = dense<[[… > : tensor<4x10xf32>} : () -> memref<4x10xf32>
    affine.for %arg1 = 0 to 10 {
      %20 = alloca() : memref<f32>
      affine.store %cst, %20[] : memref<f32>
      affine.for %arg2 = 0 to 4 {
        %22 = affine.load %arg0[%arg2] : memref<4xf32>
        %23 = affine.load %12[%arg2, %arg1] : memref<4x10xf32>
        %24 = affine.load %20[] : memref<f32>
        %25 = mulf %22, %23 : f32
        %26 = addf %24, %25 : f32
        affine.store %26, %20[] : memref<f32>
      }
      %21 = affine.load %20[] : memref<f32>
      affine.store %21, %11[%arg1] : memref<10xf32>
    }
    %13 = "krnl.global"() {name = "constant_1", shape = [10], value = dense<[-0.311646879, -0.431221306, 0.469752908, 0.481094539, 0.272461116, -0.248878419, 0.2797409, -0.332013369, 1.873110e-01, 0.382959753]> : tensor<10xf32>} : () -> memref<10xf32>
    affine.for %arg1 = 0 to 10 {
      %20 = affine.load %11[%arg1] : memref<10xf32>
      %21 = affine.load %13[%arg1] : memref<10xf32>
      %22 = addf %20, %21 : f32
      affine.store %22, %10[%arg1] : memref<10xf32>
    }
    affine.for %arg1 = 0 to 10 {
      %20 = affine.load %10[%arg1] : memref<10xf32>
      %21 = cmpf olt, %20, %cst : f32
      %22 = select %21, %cst, %20 : f32
      affine.store %22, %9[%arg1] : memref<10xf32>
    }
    %14 = "krnl.global"() {name = "constant_2", shape = [10, 10], value = dense<[[… > : tensor<10x10xf32>} : () -> memref<10x10xf32>
    affine.for %arg1 = 0 to 10 {
      %20 = alloca() : memref<f32>
      affine.store %cst, %20[] : memref<f32>
      affine.for %arg2 = 0 to 10 {
        %22 = affine.load %9[%arg2] : memref<10xf32>
        %23 = affine.load %14[%arg2, %arg1] : memref<10x10xf32>
        %24 = affine.load %20[] : memref<f32>
        %25 = mulf %22, %23 : f32
        %26 = addf %24, %25 : f32
        affine.store %26, %20[] : memref<f32>
      }
      %21 = affine.load %20[] : memref<f32>
      affine.store %21, %8[%arg1] : memref<10xf32>
    }
    %15 = "krnl.global"() {name = "constant_3", shape = [10], value = dense<[-0.176395148, -1.067030e-01, -0.236138284, -0.292516053, 1.02632129, -0.257343292, 0.148608744, 0.0442748666, 0.0406188555, 0.0537791885]> : tensor<10xf32>} : () -> memref<10xf32>
    affine.for %arg1 = 0 to 10 {
      %20 = affine.load %8[%arg1] : memref<10xf32>
      %21 = affine.load %15[%arg1] : memref<10xf32>
      %22 = addf %20, %21 : f32
      affine.store %22, %7[%arg1] : memref<10xf32>
    }
    affine.for %arg1 = 0 to 10 {
      %20 = affine.load %7[%arg1] : memref<10xf32>
      %21 = cmpf olt, %20, %cst : f32
      %22 = select %21, %cst, %20 : f32
      affine.store %22, %6[%arg1] : memref<10xf32>
    }
    %16 = "krnl.global"() {name = "constant_4", shape = [10, 3], value = dense<[[… > : tensor<10x3xf32>} : () -> memref<10x3xf32>
    affine.for %arg1 = 0 to 3 {
      %20 = alloca() : memref<f32>
      affine.store %cst, %20[] : memref<f32>
      affine.for %arg2 = 0 to 10 {
        %22 = affine.load %6[%arg2] : memref<10xf32>
        %23 = affine.load %16[%arg2, %arg1] : memref<10x3xf32>
        %24 = affine.load %20[] : memref<f32>
        %25 = mulf %22, %23 : f32
        %26 = addf %24, %25 : f32
        affine.store %26, %20[] : memref<f32>
      }
      %21 = affine.load %20[] : memref<f32>
      affine.store %21, %5[%arg1] : memref<3xf32>
    }
    %17 = "krnl.global"() {name = "constant_5", shape = [3], value = dense<[0.256047785, 0.0399362482, -0.434387296]> : tensor<3xf32>} : () -> memref<3xf32>
    affine.for %arg1 = 0 to 3 {
      %20 = affine.load %5[%arg1] : memref<3xf32>
      %21 = affine.load %17[%arg1] : memref<3xf32>
      %22 = addf %20, %21 : f32
      affine.store %22, %4[%arg1] : memref<3xf32>
    }
    affine.store %cst, %2[] : memref<f32>
    affine.store %cst_0, %1[] : memref<f32>
    affine.for %arg1 = 0 to 3 {
      %20 = affine.load %1[] : memref<f32>
      %21 = affine.load %4[%arg1] : memref<3xf32>
      %22 = cmpf ogt, %20, %21 : f32
      %23 = select %22, %20, %21 : f32
      affine.store %23, %1[] : memref<f32>
    }
    %18 = affine.load %1[] : memref<f32>
    affine.for %arg1 = 0 to 3 {
      %20 = affine.load %2[] : memref<f32>
      %21 = affine.load %4[%arg1] : memref<3xf32>
      %22 = subf %21, %18 : f32
      %23 = exp %22 : f32
      %24 = addf %20, %23 : f32
      affine.store %24, %2[] : memref<f32>
      affine.store %23, %3[%arg1] : memref<3xf32>
    }
    %19 = affine.load %2[] : memref<f32>
    affine.for %arg1 = 0 to 3 {
      %20 = affine.load %3[%arg1] : memref<3xf32>
      %21 = divf %20, %19 : f32
      affine.store %21, %3[%arg1] : memref<3xf32>
    }
    dealloc %0 : memref<152xi8>
    return %3 : memref<3xf32>
  }
  "krnl.entry_point"() {func = @main_graph, numInputs = 1 : i32, numOutputs = 1 : i32, signature = "[    { \22type\22 : \22float\22 , \22dims\22 : [4]  }\0A\0A]\00@[   { \22type\22 : \22float\22 , \22dims\22 : [3]  }\0A\0A]\00"} : () -> ()
}
