module  {
  func @main_graph(%arg0: memref<784xf32>) -> memref<10xf32> attributes {input_names = ["input.1"], output_names = ["17"]} {
    %cst = constant 0.000000e+00 : f32
    %c0_i64 = constant 0 : i64
    %c40_i64 = constant 40 : i64
    %c120_i64 = constant 120 : i64
    %c200_i64 = constant 200 : i64
    %0 = alloc() : memref<10xf32>
    %1 = alloc() : memref<280xi8>
    %2 = "krnl.getref"(%1, %c0_i64) : (memref<280xi8>, i64) -> memref<10xf32>
    %3 = "krnl.getref"(%1, %c40_i64) : (memref<280xi8>, i64) -> memref<20xf32>
    %4 = "krnl.getref"(%1, %c120_i64) : (memref<280xi8>, i64) -> memref<20xf32>
    %5 = "krnl.getref"(%1, %c40_i64) : (memref<280xi8>, i64) -> memref<20xf32>
    %6 = "krnl.getref"(%1, %c200_i64) : (memref<280xi8>, i64) -> memref<20xf32>
    %7 = "krnl.getref"(%1, %c120_i64) : (memref<280xi8>, i64) -> memref<20xf32>
    %8 = "krnl.getref"(%1, %c40_i64) : (memref<280xi8>, i64) -> memref<20xf32>
    %9 = "krnl.global"() {name = "constant_0", shape = [784, 20], value = dense<"…"> : tensor<784x20xf32>} : () -> memref<784x20xf32>
    affine.for %arg1 = 0 to 20 {
      %15 = alloca() : memref<f32>
      affine.store %cst, %15[] : memref<f32>
      affine.for %arg2 = 0 to 784 {
        %17 = affine.load %arg0[%arg2] : memref<784xf32>
        %18 = affine.load %9[%arg2, %arg1] : memref<784x20xf32>
        %19 = affine.load %15[] : memref<f32>
        %20 = mulf %17, %18 : f32
        %21 = addf %19, %20 : f32
        affine.store %21, %15[] : memref<f32>
      }
      %16 = affine.load %15[] : memref<f32>
      affine.store %16, %8[%arg1] : memref<20xf32>
    }
    %10 = "krnl.global"() {name = "constant_1", shape = [20], value = dense<[… > : tensor<20xf32>} : () -> memref<20xf32>
    affine.for %arg1 = 0 to 20 {
      %15 = affine.load %8[%arg1] : memref<20xf32>
      %16 = affine.load %10[%arg1] : memref<20xf32>
      %17 = addf %15, %16 : f32
      affine.store %17, %7[%arg1] : memref<20xf32>
    }
    affine.for %arg1 = 0 to 20 {
      %15 = affine.load %7[%arg1] : memref<20xf32>
      %16 = cmpf olt, %15, %cst : f32
      %17 = select %16, %cst, %15 : f32
      affine.store %17, %6[%arg1] : memref<20xf32>
    }
    %11 = "krnl.global"() {name = "constant_2", shape = [20, 20], value = dense<"…"> : tensor<20x20xf32>} : () -> memref<20x20xf32>
    affine.for %arg1 = 0 to 20 {
      %15 = alloca() : memref<f32>
      affine.store %cst, %15[] : memref<f32>
      affine.for %arg2 = 0 to 20 {
        %17 = affine.load %6[%arg2] : memref<20xf32>
        %18 = affine.load %11[%arg2, %arg1] : memref<20x20xf32>
        %19 = affine.load %15[] : memref<f32>
        %20 = mulf %17, %18 : f32
        %21 = addf %19, %20 : f32
        affine.store %21, %15[] : memref<f32>
      }
      %16 = affine.load %15[] : memref<f32>
      affine.store %16, %5[%arg1] : memref<20xf32>
    }
    %12 = "krnl.global"() {name = "constant_3", shape = [20], value = dense<[… > : tensor<20xf32>} : () -> memref<20xf32>
    affine.for %arg1 = 0 to 20 {
      %15 = affine.load %5[%arg1] : memref<20xf32>
      %16 = affine.load %12[%arg1] : memref<20xf32>
      %17 = addf %15, %16 : f32
      affine.store %17, %4[%arg1] : memref<20xf32>
    }
    affine.for %arg1 = 0 to 20 {
      %15 = affine.load %4[%arg1] : memref<20xf32>
      %16 = cmpf olt, %15, %cst : f32
      %17 = select %16, %cst, %15 : f32
      affine.store %17, %3[%arg1] : memref<20xf32>
    }
    %13 = "krnl.global"() {name = "constant_4", shape = [20, 10], value = dense<"…"> : tensor<20x10xf32>} : () -> memref<20x10xf32>
    affine.for %arg1 = 0 to 10 {
      %15 = alloca() : memref<f32>
      affine.store %cst, %15[] : memref<f32>
      affine.for %arg2 = 0 to 20 {
        %17 = affine.load %3[%arg2] : memref<20xf32>
        %18 = affine.load %13[%arg2, %arg1] : memref<20x10xf32>
        %19 = affine.load %15[] : memref<f32>
        %20 = mulf %17, %18 : f32
        %21 = addf %19, %20 : f32
        affine.store %21, %15[] : memref<f32>
      }
      %16 = affine.load %15[] : memref<f32>
      affine.store %16, %2[%arg1] : memref<10xf32>
    }
    %14 = "krnl.global"() {name = "constant_5", shape = [10], value = dense<[-0.214584872, -0.230596825, -0.04812067, -0.221122548, 0.179767385, 6.907110e-02, -0.0772843435, 0.108630158, -7.163550e-01, 0.118802145]> : tensor<10xf32>} : () -> memref<10xf32>
    affine.for %arg1 = 0 to 10 {
      %15 = affine.load %2[%arg1] : memref<10xf32>
      %16 = affine.load %14[%arg1] : memref<10xf32>
      %17 = addf %15, %16 : f32
      affine.store %17, %0[%arg1] : memref<10xf32>
    }
    dealloc %1 : memref<280xi8>
    return %0 : memref<10xf32>
  }
  "krnl.entry_point"() {func = @main_graph, numInputs = 1 : i32, numOutputs = 1 : i32, signature = "[    { \22type\22 : \22float\22 , \22dims\22 : [784]  }\0A\0A]\00@[   { \22type\22 : \22float\22 , \22dims\22 : [10]  }\0A\0A]\00"} : () -> ()
}
